…
├─OutConv: 1-12                          --
│    └─Conv2d: 2-29                      132
=================================================================
Total params: 9,037,668
Trainable params: 9,037,668
Non-trainable params: 0
=================================================================

"""
ResD_unet:base_channels=32; tripleconv
"""
==========================================================================================
Layer (type:depth-idx)                   Output Shape              Param #
==========================================================================================
ResD_UNet                                [1, 4, 224, 224]          --
├─DoubleConv: 1-1                        [1, 32, 224, 224]         --
│    └─Sequential: 2-1                   [1, 32, 224, 224]         --
│    │    └─Conv2d: 3-1                  [1, 32, 224, 224]         896
│    │    └─BatchNorm2d: 3-2             [1, 32, 224, 224]         64
│    └─Sequential: 2-2                   --                        (recursive)
│    │    └─ReLU: 3-3                    [1, 32, 224, 224]         --
│    └─Sequential: 2-3                   [1, 32, 224, 224]         --
│    │    └─Conv2d: 3-4                  [1, 32, 224, 224]         9,248
│    │    └─BatchNorm2d: 3-5             [1, 32, 224, 224]         64
│    │    └─ReLU: 3-6                    [1, 32, 224, 224]         --
├─ResD_Down: 1-2                         [1, 64, 112, 112]         --
│    └─MaxPool2d: 2-4                    [1, 32, 112, 112]         --
│    └─Dalit_Conv: 2-5                   [1, 64, 112, 112]         --
│    │    └─Sequential: 3-7              [1, 64, 112, 112]         18,624
│    │    └─Sequential: 3-10             --                        (recursive)
│    │    └─Sequential: 3-9              [1, 64, 112, 112]         37,056
│    │    └─Sequential: 3-10             --                        (recursive)
│    │    └─Sequential: 3-11             [1, 64, 112, 112]         37,056
│    └─ResConv: 2-6                      [1, 64, 112, 112]         --
│    │    └─Sequential: 3-12             [1, 64, 112, 112]         4,288
│    │    └─Sequential: 3-13             [1, 32, 112, 112]         2,144
│    │    └─Sequential: 3-18             --                        (recursive)
│    │    └─Sequential: 3-15             [1, 32, 112, 112]         9,312
│    │    └─Sequential: 3-16             [1, 64, 112, 112]         2,240
│    │    └─Sequential: 3-17             --                        (recursive)
│    │    └─Sequential: 3-18             --                        (recursive)
├─Dropout2d: 1-3                         [1, 64, 112, 112]         --
├─Res_Down: 1-4                          [1, 128, 56, 56]          --
│    └─MaxPool2d: 2-7                    [1, 64, 56, 56]           --
│    └─ResConv: 2-8                      [1, 128, 56, 56]          --
│    │    └─Sequential: 3-19             [1, 128, 56, 56]          8,576
│    │    └─Sequential: 3-20             [1, 32, 56, 56]           2,144
│    │    └─Sequential: 3-25             --                        (recursive)
│    │    └─Sequential: 3-22             [1, 32, 56, 56]           9,312
│    │    └─Sequential: 3-23             [1, 128, 56, 56]          4,480
│    │    └─Sequential: 3-24             --                        (recursive)
│    │    └─Sequential: 3-25             --                        (recursive)
├─Dropout2d: 1-5                         [1, 128, 56, 56]          --
├─Res_Down: 1-6                          [1, 256, 28, 28]          --
│    └─MaxPool2d: 2-9                    [1, 128, 28, 28]          --
│    └─ResConv: 2-10                     [1, 256, 28, 28]          --
│    │    └─Sequential: 3-26             [1, 256, 28, 28]          33,536
│    │    └─Sequential: 3-27             [1, 64, 28, 28]           8,384
│    │    └─Sequential: 3-32             --                        (recursive)
│    │    └─Sequential: 3-29             [1, 64, 28, 28]           37,056
│    │    └─Sequential: 3-30             [1, 256, 28, 28]          17,152
│    │    └─Sequential: 3-31             --                        (recursive)
│    │    └─Sequential: 3-32             --                        (recursive)
├─Dropout2d: 1-7                         [1, 256, 28, 28]          --
├─Res_Down: 1-8                          [1, 256, 14, 14]          --
│    └─MaxPool2d: 2-11                   [1, 256, 14, 14]          --
│    └─ResConv: 2-12                     [1, 256, 14, 14]          --
│    │    └─Sequential: 3-33             [1, 256, 14, 14]          66,304
│    │    └─Sequential: 3-34             [1, 64, 14, 14]           16,576
│    │    └─Sequential: 3-39             --                        (recursive)
│    │    └─Sequential: 3-36             [1, 64, 14, 14]           37,056
│    │    └─Sequential: 3-37             [1, 256, 14, 14]          17,152
│    │    └─Sequential: 3-38             --                        (recursive)
│    │    └─Sequential: 3-39             --                        (recursive)
├─Dropout2d: 1-9                         [1, 256, 14, 14]          --
├─DoubleConv: 1-10                       [1, 512, 14, 14]          --
│    └─Sequential: 2-13                  [1, 512, 14, 14]          --
│    │    └─Conv2d: 3-40                 [1, 512, 14, 14]          1,180,160
│    │    └─BatchNorm2d: 3-41            [1, 512, 14, 14]          1,024
│    └─Sequential: 2-14                  --                        (recursive)
│    │    └─ReLU: 3-42                   [1, 512, 14, 14]          --
│    └─Sequential: 2-15                  [1, 512, 14, 14]          --
│    │    └─Conv2d: 3-43                 [1, 512, 14, 14]          2,359,808
│    │    └─BatchNorm2d: 3-44            [1, 512, 14, 14]          1,024
│    │    └─ReLU: 3-45                   [1, 512, 14, 14]          --
├─Res_Up: 1-11                           [1, 128, 28, 28]          --
│    └─Upsample: 2-16                    [1, 256, 28, 28]          --
│    └─ResConv: 2-17                     [1, 128, 28, 28]          --
│    │    └─Sequential: 3-46             [1, 128, 28, 28]          65,920
│    │    └─Sequential: 3-47             [1, 128, 28, 28]          65,920
│    │    └─Sequential: 3-52             --                        (recursive)
│    │    └─Sequential: 3-49             [1, 128, 28, 28]          147,840
│    │    └─Sequential: 3-50             [1, 128, 28, 28]          16,768
│    │    └─Sequential: 3-51             --                        (recursive)
│    │    └─Sequential: 3-52             --                        (recursive)
├─Dropout2d: 1-12                        [1, 128, 28, 28]          --
├─Res_Up: 1-13                           [1, 64, 56, 56]           --
│    └─Upsample: 2-18                    [1, 128, 56, 56]          --
│    └─ResConv: 2-19                     [1, 64, 56, 56]           --
│    │    └─Sequential: 3-53             [1, 64, 56, 56]           16,576
│    │    └─Sequential: 3-54             [1, 64, 56, 56]           16,576
│    │    └─Sequential: 3-59             --                        (recursive)
│    │    └─Sequential: 3-56             [1, 64, 56, 56]           37,056
│    │    └─Sequential: 3-57             [1, 64, 56, 56]           4,288
│    │    └─Sequential: 3-58             --                        (recursive)
│    │    └─Sequential: 3-59             --                        (recursive)
├─Dropout2d: 1-14                        [1, 64, 56, 56]           --
├─Res_Up: 1-15                           [1, 32, 112, 112]         --
│    └─Upsample: 2-20                    [1, 64, 112, 112]         --
│    └─ResConv: 2-21                     [1, 32, 112, 112]         --
│    │    └─Sequential: 3-60             [1, 32, 112, 112]         4,192
│    │    └─Sequential: 3-61             [1, 2, 112, 112]          262
│    │    └─Sequential: 3-66             --                        (recursive)
│    │    └─Sequential: 3-63             [1, 2, 112, 112]          42
│    │    └─Sequential: 3-64             [1, 32, 112, 112]         160
│    │    └─Sequential: 3-65             --                        (recursive)
│    │    └─Sequential: 3-66             --                        (recursive)
├─Dropout2d: 1-16                        [1, 32, 112, 112]         --
├─ResD_Up: 1-17                          [1, 32, 224, 224]         --
│    └─Upsample: 2-22                    [1, 32, 224, 224]         --
│    └─Dalit_Conv: 2-23                  [1, 32, 224, 224]         --
│    │    └─Sequential: 3-67             [1, 32, 224, 224]         18,528
│    │    └─Sequential: 3-70             --                        (recursive)
│    │    └─Sequential: 3-69             [1, 32, 224, 224]         9,312
│    │    └─Sequential: 3-70             --                        (recursive)
│    │    └─Sequential: 3-71             [1, 32, 224, 224]         9,312
│    └─ResConv: 2-24                     [1, 32, 224, 224]         --
│    │    └─Sequential: 3-72             [1, 32, 224, 224]         1,120
│    │    └─Sequential: 3-73             [1, 16, 224, 224]         560
│    │    └─Sequential: 3-78             --                        (recursive)
│    │    └─Sequential: 3-75             [1, 16, 224, 224]         2,352
│    │    └─Sequential: 3-76             [1, 32, 224, 224]         608
│    │    └─Sequential: 3-77             --                        (recursive)
│    │    └─Sequential: 3-78             --                        (recursive)
├─Dropout2d: 1-18                        [1, 32, 224, 224]         --
├─OutConv: 1-19                          [1, 4, 224, 224]          --
│    └─Conv2d: 2-25                      [1, 4, 224, 224]          132
==========================================================================================
Total params: 4,338,260
Trainable params: 4,338,260
Non-trainable params: 0
Total mult-adds (Units.GIGABYTES): 5.36
==========================================================================================
Input size (MB): 0.60
Forward/backward pass size (MB): 346.42
Params size (MB): 17.35
Estimated Total Size (MB): 364.36
==========================================================================================

# SED_unet  增加了金字塔池化
===============================================================================================
Layer (type:depth-idx)                        Output Shape              Param #
===============================================================================================
SED_UNet                                      [1, 4, 224, 224]          --
├─DoubleConv: 1-1                             [1, 32, 224, 224]         --
│    └─Sequential: 2-1                        [1, 32, 224, 224]         --
│    │    └─Conv2d: 3-1                       [1, 32, 224, 224]         896
│    │    └─BatchNorm2d: 3-2                  [1, 32, 224, 224]         64
│    └─Sequential: 2-2                        --                        (recursive)
│    │    └─ReLU: 3-3                         [1, 32, 224, 224]         --
│    └─Sequential: 2-3                        [1, 32, 224, 224]         --
│    │    └─Conv2d: 3-4                       [1, 32, 224, 224]         9,248
│    │    └─BatchNorm2d: 3-5                  [1, 32, 224, 224]         64
│    │    └─ReLU: 3-6                         [1, 32, 224, 224]         --
├─Dropout2d: 1-2                              [1, 32, 224, 224]         --
├─PSPModule: 1-3                              [1, 64, 224, 224]         --
│    └─ModuleList: 2-4                        --                        --
│    │    └─Sequential: 3-7                   [1, 8, 16, 16]            280
│    │    └─Sequential: 3-8                   [1, 8, 32, 32]            280
│    │    └─Sequential: 3-9                   [1, 8, 64, 64]            280
│    │    └─Sequential: 3-10                  [1, 8, 128, 128]          280
├─Dropout2d: 1-4                              [1, 64, 224, 224]         --
├─DoubleConv: 1-5                             [1, 32, 224, 224]         --
│    └─Sequential: 2-5                        [1, 32, 224, 224]         --
│    │    └─Conv2d: 3-11                      [1, 32, 224, 224]         18,464
│    │    └─BatchNorm2d: 3-12                 [1, 32, 224, 224]         64
│    └─Sequential: 2-6                        --                        (recursive)
│    │    └─ReLU: 3-13                        [1, 32, 224, 224]         --
│    └─Sequential: 2-7                        [1, 32, 224, 224]         --
│    │    └─Conv2d: 3-14                      [1, 32, 224, 224]         9,248
│    │    └─BatchNorm2d: 3-15                 [1, 32, 224, 224]         64
│    │    └─ReLU: 3-16                        [1, 32, 224, 224]         --
├─Down: 1-6                                   [1, 64, 112, 112]         --
│    └─MaxPool2d: 2-8                         [1, 32, 112, 112]         --
│    └─DoubleConv: 2-9                        [1, 64, 112, 112]         --
│    │    └─Sequential: 3-17                  [1, 64, 112, 112]         18,624
│    │    └─Sequential: 3-18                  --                        (recursive)
│    │    └─Sequential: 3-19                  [1, 64, 112, 112]         37,056
├─Dropout2d: 1-7                              [1, 64, 112, 112]         --
├─Down: 1-8                                   [1, 128, 56, 56]          --
│    └─MaxPool2d: 2-10                        [1, 64, 56, 56]           --
│    └─DoubleConv: 2-11                       [1, 128, 56, 56]          --
│    │    └─Sequential: 3-20                  [1, 128, 56, 56]          74,112
│    │    └─Sequential: 3-21                  --                        (recursive)
│    │    └─Sequential: 3-22                  [1, 128, 56, 56]          147,840
├─Dropout2d: 1-9                              [1, 128, 56, 56]          --
├─Down: 1-10                                  [1, 256, 28, 28]          --
│    └─MaxPool2d: 2-12                        [1, 128, 28, 28]          --
│    └─DoubleConv: 2-13                       [1, 256, 28, 28]          --
│    │    └─Sequential: 3-23                  [1, 256, 28, 28]          295,680
│    │    └─Sequential: 3-24                  --                        (recursive)
│    │    └─Sequential: 3-25                  [1, 256, 28, 28]          590,592
├─Dropout2d: 1-11                             [1, 256, 28, 28]          --
├─Down: 1-12                                  [1, 256, 14, 14]          --
│    └─MaxPool2d: 2-14                        [1, 256, 14, 14]          --
│    └─DoubleConv: 2-15                       [1, 256, 14, 14]          --
│    │    └─Sequential: 3-26                  [1, 256, 14, 14]          590,592
│    │    └─Sequential: 3-27                  --                        (recursive)
│    │    └─Sequential: 3-28                  [1, 256, 14, 14]          590,592
├─Dropout2d: 1-13                             [1, 256, 14, 14]          --
├─DoubleConv: 1-14                            [1, 512, 14, 14]          --
│    └─Sequential: 2-16                       [1, 512, 14, 14]          --
│    │    └─Conv2d: 3-29                      [1, 512, 14, 14]          1,180,160
│    │    └─BatchNorm2d: 3-30                 [1, 512, 14, 14]          1,024
│    └─Sequential: 2-17                       --                        (recursive)
│    │    └─ReLU: 3-31                        [1, 512, 14, 14]          --
│    └─Sequential: 2-18                       [1, 512, 14, 14]          --
│    │    └─Conv2d: 3-32                      [1, 512, 14, 14]          2,359,808
│    │    └─BatchNorm2d: 3-33                 [1, 512, 14, 14]          1,024
│    │    └─ReLU: 3-34                        [1, 512, 14, 14]          --
├─Up: 1-15                                    [1, 128, 28, 28]          --
│    └─Upsample: 2-19                         [1, 256, 28, 28]          --
│    └─DoubleConv: 2-20                       [1, 128, 28, 28]          --
│    │    └─Sequential: 3-35                  [1, 256, 28, 28]          1,180,416
│    │    └─Sequential: 3-36                  --                        (recursive)
│    │    └─Sequential: 3-37                  [1, 128, 28, 28]          295,296
├─Dropout2d: 1-16                             [1, 128, 28, 28]          --
├─Up: 1-17                                    [1, 64, 56, 56]           --
│    └─Upsample: 2-21                         [1, 128, 56, 56]          --
│    └─DoubleConv: 2-22                       [1, 64, 56, 56]           --
│    │    └─Sequential: 3-38                  [1, 128, 56, 56]          295,296
│    │    └─Sequential: 3-39                  --                        (recursive)
│    │    └─Sequential: 3-40                  [1, 64, 56, 56]           73,920
├─Dropout2d: 1-18                             [1, 64, 56, 56]           --
├─Up: 1-19                                    [1, 32, 112, 112]         --
│    └─Upsample: 2-23                         [1, 64, 112, 112]         --
│    └─DoubleConv: 2-24                       [1, 32, 112, 112]         --
│    │    └─Sequential: 3-41                  [1, 64, 112, 112]         73,920
│    │    └─Sequential: 3-42                  --                        (recursive)
│    │    └─Sequential: 3-43                  [1, 32, 112, 112]         18,528
├─Dropout2d: 1-20                             [1, 32, 112, 112]         --
├─Up: 1-21                                    [1, 32, 224, 224]         --
│    └─Upsample: 2-25                         [1, 32, 224, 224]         --
│    └─DoubleConv: 2-26                       [1, 32, 224, 224]         --
│    │    └─Sequential: 3-44                  [1, 32, 224, 224]         18,528
│    │    └─Sequential: 3-45                  --                        (recursive)
│    │    └─Sequential: 3-46                  [1, 32, 224, 224]         9,312
├─Dropout2d: 1-22                             [1, 32, 224, 224]         --
├─OutConv: 1-23                               [1, 4, 224, 224]          --
│    └─Conv2d: 2-27                           [1, 4, 224, 224]          132
===============================================================================================
Total params: 7,891,684
Trainable params: 7,891,684
Non-trainable params: 0
Total mult-adds (Units.GIGABYTES): 9.78
===============================================================================================
Input size (MB): 0.60
Forward/backward pass size (MB): 242.02
Params size (MB): 31.57
Estimated Total Size (MB): 274.19
…
│    └─Dropout: 2-17                               --
│    └─Conv2d: 2-18                                1,028
===========================================================================
Total params: 41,995,336
Trainable params: 41,995,336
Non-trainable params: 0
===========================================================================

# Segnet 
==========================================================================================
Layer (type:depth-idx)                   Output Shape              Param #
==========================================================================================
SegNet                                   [1, 4, 256, 256]          --
├─Encoder: 1-1                           [1, 512, 8, 8]            --
│    └─Sequential: 2-1                   [1, 64, 256, 256]         --
│    │    └─Conv2d: 3-1                  [1, 64, 256, 256]         1,792
│    │    └─BatchNorm2d: 3-2             [1, 64, 256, 256]         128
│    │    └─ReLU: 3-3                    [1, 64, 256, 256]         --
│    │    └─Conv2d: 3-4                  [1, 64, 256, 256]         36,928
│    │    └─BatchNorm2d: 3-5             [1, 64, 256, 256]         128
│    │    └─ReLU: 3-6                    [1, 64, 256, 256]         --
│    └─Dropout: 2-2                      [1, 64, 128, 128]         --
│    └─Sequential: 2-3                   [1, 128, 128, 128]        --
│    │    └─Conv2d: 3-7                  [1, 128, 128, 128]        73,856
│    │    └─BatchNorm2d: 3-8             [1, 128, 128, 128]        256
│    │    └─ReLU: 3-9                    [1, 128, 128, 128]        --
│    │    └─Conv2d: 3-10                 [1, 128, 128, 128]        147,584
│    │    └─BatchNorm2d: 3-11            [1, 128, 128, 128]        256
│    │    └─ReLU: 3-12                   [1, 128, 128, 128]        --
│    └─Dropout: 2-4                      [1, 128, 64, 64]          --
│    └─Sequential: 2-5                   [1, 256, 64, 64]          --
│    │    └─Conv2d: 3-13                 [1, 256, 64, 64]          295,168
│    │    └─BatchNorm2d: 3-14            [1, 256, 64, 64]          512
│    │    └─ReLU: 3-15                   [1, 256, 64, 64]          --
│    │    └─Conv2d: 3-16                 [1, 256, 64, 64]          590,080
│    │    └─BatchNorm2d: 3-17            [1, 256, 64, 64]          512
│    │    └─ReLU: 3-18                   [1, 256, 64, 64]          --
│    │    └─Conv2d: 3-19                 [1, 256, 64, 64]          590,080
│    │    └─BatchNorm2d: 3-20            [1, 256, 64, 64]          512
│    │    └─ReLU: 3-21                   [1, 256, 64, 64]          --
│    └─Dropout: 2-6                      [1, 256, 32, 32]          --
│    └─Sequential: 2-7                   [1, 512, 32, 32]          --
│    │    └─Conv2d: 3-22                 [1, 512, 32, 32]          1,180,160
│    │    └─BatchNorm2d: 3-23            [1, 512, 32, 32]          1,024
│    │    └─ReLU: 3-24                   [1, 512, 32, 32]          --
│    │    └─Conv2d: 3-25                 [1, 512, 32, 32]          2,359,808
│    │    └─BatchNorm2d: 3-26            [1, 512, 32, 32]          1,024
│    │    └─ReLU: 3-27                   [1, 512, 32, 32]          --
│    │    └─Conv2d: 3-28                 [1, 512, 32, 32]          2,359,808
│    │    └─BatchNorm2d: 3-29            [1, 512, 32, 32]          1,024
│    │    └─ReLU: 3-30                   [1, 512, 32, 32]          --
│    └─Dropout: 2-8                      [1, 512, 16, 16]          --
│    └─Sequential: 2-9                   [1, 512, 16, 16]          --
│    │    └─Conv2d: 3-31                 [1, 512, 16, 16]          2,359,808
│    │    └─BatchNorm2d: 3-32            [1, 512, 16, 16]          1,024
│    │    └─ReLU: 3-33                   [1, 512, 16, 16]          --
│    │    └─Conv2d: 3-34                 [1, 512, 16, 16]          2,359,808
│    │    └─BatchNorm2d: 3-35            [1, 512, 16, 16]          1,024
│    │    └─ReLU: 3-36                   [1, 512, 16, 16]          --
│    │    └─Conv2d: 3-37                 [1, 512, 16, 16]          2,359,808
│    │    └─BatchNorm2d: 3-38            [1, 512, 16, 16]          1,024
│    │    └─ReLU: 3-39                   [1, 512, 16, 16]          --
│    └─Dropout: 2-10                     [1, 512, 8, 8]            --
├─Sequential: 1-2                        [1, 512, 16, 16]          --
│    └─Conv2d: 2-11                      [1, 512, 16, 16]          2,359,808
│    └─BatchNorm2d: 2-12                 [1, 512, 16, 16]          1,024
│    └─ReLU: 2-13                        [1, 512, 16, 16]          --
│    └─Conv2d: 2-14                      [1, 512, 16, 16]          2,359,808
│    └─BatchNorm2d: 2-15                 [1, 512, 16, 16]          1,024
│    └─ReLU: 2-16                        [1, 512, 16, 16]          --
│    └─Conv2d: 2-17                      [1, 512, 16, 16]          2,359,808
│    └─BatchNorm2d: 2-18                 [1, 512, 16, 16]          1,024
│    └─ReLU: 2-19                        [1, 512, 16, 16]          --
├─Dropout: 1-3                           [1, 512, 16, 16]          --
├─Sequential: 1-4                        [1, 256, 32, 32]          --
│    └─Conv2d: 2-20                      [1, 512, 32, 32]          2,359,808
│    └─BatchNorm2d: 2-21                 [1, 512, 32, 32]          1,024
│    └─ReLU: 2-22                        [1, 512, 32, 32]          --
│    └─Conv2d: 2-23                      [1, 512, 32, 32]          2,359,808
│    └─BatchNorm2d: 2-24                 [1, 512, 32, 32]          1,024
│    └─ReLU: 2-25                        [1, 512, 32, 32]          --
│    └─Conv2d: 2-26                      [1, 256, 32, 32]          1,179,904
│    └─BatchNorm2d: 2-27                 [1, 256, 32, 32]          512
│    └─ReLU: 2-28                        [1, 256, 32, 32]          --
├─Dropout: 1-5                           [1, 256, 32, 32]          --
├─Sequential: 1-6                        [1, 128, 64, 64]          --
│    └─Conv2d: 2-29                      [1, 256, 64, 64]          590,080
│    └─BatchNorm2d: 2-30                 [1, 256, 64, 64]          512
│    └─ReLU: 2-31                        [1, 256, 64, 64]          --
│    └─Conv2d: 2-32                      [1, 256, 64, 64]          590,080
│    └─BatchNorm2d: 2-33                 [1, 256, 64, 64]          512
│    └─ReLU: 2-34                        [1, 256, 64, 64]          --
│    └─Conv2d: 2-35                      [1, 128, 64, 64]          295,040
│    └─BatchNorm2d: 2-36                 [1, 128, 64, 64]          256
│    └─ReLU: 2-37                        [1, 128, 64, 64]          --
├─Dropout: 1-7                           [1, 128, 64, 64]          --
├─Sequential: 1-8                        [1, 64, 128, 128]         --
│    └─Conv2d: 2-38                      [1, 128, 128, 128]        147,584
│    └─BatchNorm2d: 2-39                 [1, 128, 128, 128]        256
│    └─ReLU: 2-40                        [1, 128, 128, 128]        --
│    └─Conv2d: 2-41                      [1, 64, 128, 128]         73,792
│    └─BatchNorm2d: 2-42                 [1, 64, 128, 128]         128
│    └─ReLU: 2-43                        [1, 64, 128, 128]         --
├─Dropout: 1-9                           [1, 64, 128, 128]         --
├─Sequential: 1-10                       [1, 4, 256, 256]          --
│    └─Conv2d: 2-44                      [1, 64, 256, 256]         36,928
│    └─BatchNorm2d: 2-45                 [1, 64, 256, 256]         128
│    └─ReLU: 2-46                        [1, 64, 256, 256]         --
│    └─Conv2d: 2-47                      [1, 4, 256, 256]          2,308
==========================================================================================
Total params: 29,445,316
Trainable params: 29,445,316
Non-trainable params: 0
Total mult-adds (Units.GIGABYTES): 40.16
==========================================================================================
Input size (MB): 0.79
Forward/backward pass size (MB): 471.86
Params size (MB): 117.78
Estimated Total Size (MB): 590.43
…
├─OutConv: 1-15                          --
│    └─Conv2d: 2-48                      132
=================================================================
Total params: 8,803,334
Trainable params: 8,803,334
Non-trainable params: 0
=================================================================

# msaf_unetv2 
==========================================================================================
Layer (type:depth-idx)                   Output Shape              Param #
==========================================================================================
MSAF_UNetv2                              [1, 4, 256, 256]          --
├─DoubleConv: 1-1                        [1, 32, 256, 256]         --
│    └─Sequential: 2-1                   [1, 32, 256, 256]         --
│    │    └─Conv2d: 3-1                  [1, 32, 256, 256]         896
│    │    └─BatchNorm2d: 3-2             [1, 32, 256, 256]         64
│    └─Sequential: 2-2                   --                        (recursive)
│    │    └─ReLU: 3-3                    [1, 32, 256, 256]         --
│    └─Sequential: 2-3                   [1, 32, 256, 256]         --
│    │    └─Conv2d: 3-4                  [1, 32, 256, 256]         9,248
│    │    └─BatchNorm2d: 3-5             [1, 32, 256, 256]         64
│    │    └─ReLU: 3-6                    [1, 32, 256, 256]         --
├─ACPNv2: 1-2                            [1, 32, 256, 256]         --
│    └─MaxPool2d: 2-4                    [1, 32, 256, 256]         --
│    └─AdaptiveAvgPool2d: 2-5            [1, 32, 1, 1]             --
│    └─Sequential: 2-6                   [1, 32, 256, 256]         --
│    │    └─DWConv: 3-7                  [1, 32, 256, 256]         1,376
│    │    └─BatchNorm2d: 3-8             [1, 32, 256, 256]         64
│    │    └─ReLU: 3-9                    [1, 32, 256, 256]         --
│    └─AdaptiveAvgPool2d: 2-7            [1, 32, 1, 1]             --
│    └─Sequential: 2-8                   [1, 32, 256, 256]         --
│    │    └─DWConv: 3-10                 [1, 16, 256, 256]         848
│    │    └─BatchNorm2d: 3-11            [1, 16, 256, 256]         32
│    │    └─ReLU: 3-12                   [1, 16, 256, 256]         --
│    │    └─DWConv: 3-13                 [1, 32, 256, 256]         704
│    │    └─BatchNorm2d: 3-14            [1, 32, 256, 256]         64
│    │    └─ReLU: 3-15                   [1, 32, 256, 256]         --
│    └─AdaptiveAvgPool2d: 2-9            [1, 32, 1, 1]             --
│    └─Sequential: 2-10                  [1, 32, 256, 256]         --
│    │    └─DWConv: 3-16                 [1, 16, 256, 256]         848
│    │    └─BatchNorm2d: 3-17            [1, 16, 256, 256]         32
│    │    └─ReLU: 3-18                   [1, 16, 256, 256]         --
│    │    └─DWConv: 3-19                 [1, 16, 256, 256]         432
│    │    └─BatchNorm2d: 3-20            [1, 16, 256, 256]         32
│    │    └─ReLU: 3-21                   [1, 16, 256, 256]         --
│    │    └─DWConv: 3-22                 [1, 32, 256, 256]         704
│    │    └─BatchNorm2d: 3-23            [1, 32, 256, 256]         64
│    │    └─ReLU: 3-24                   [1, 32, 256, 256]         --
│    └─AdaptiveAvgPool2d: 2-11           [1, 32, 1, 1]             --
│    └─Sequential: 2-12                  [1, 128, 1, 1]            --
│    │    └─Conv2d: 3-25                 [1, 32, 1, 1]             4,128
│    │    └─ReLU: 3-26                   [1, 32, 1, 1]             --
│    │    └─Conv2d: 3-27                 [1, 128, 1, 1]            4,224
│    └─Sigmoid: 2-13                     [1, 128, 1, 1]            --
│    └─Sequential: 2-14                  [1, 32, 256, 256]         --
│    │    └─Conv2d: 3-28                 [1, 32, 256, 256]         1,056
│    │    └─BatchNorm2d: 3-29            [1, 32, 256, 256]         64
│    │    └─ReLU: 3-30                   [1, 32, 256, 256]         --
├─EMAF: 1-3                              [1, 32, 256, 256]         --
│    └─AdaptiveAvgPool2d: 2-15           [32, 1, 256, 1]           --
│    └─AdaptiveAvgPool2d: 2-16           [32, 1, 1, 256]           --
│    └─Conv2d: 2-17                      [32, 1, 512, 1]           2
│    └─GroupNorm: 2-18                   [32, 1, 256, 256]         2
│    └─AdaptiveAvgPool2d: 2-19           [32, 1, 1, 1]             --
│    └─Softmax: 2-20                     [32, 1, 1, 1]             --
│    └─Conv2d: 2-21                      [32, 1, 256, 256]         10
│    └─AdaptiveAvgPool2d: 2-22           [32, 1, 1, 1]             --
│    └─Sequential: 2-23                  [32, 1, 1, 1]             --
│    │    └─Conv2d: 3-31                 [32, 1, 1, 1]             1
│    │    └─ReLU: 3-32                   [32, 1, 1, 1]             --
│    │    └─Conv2d: 3-33                 [32, 1, 1, 1]             1
│    │    └─Sigmoid: 3-34                [32, 1, 1, 1]             --
├─ResD_Down: 1-4                         [1, 64, 128, 128]         --
│    └─MaxPool2d: 2-24                   [1, 32, 128, 128]         --
│    └─Conv2d: 2-25                      [1, 64, 128, 128]         2,112
│    └─Dalit_Conv: 2-26                  [1, 64, 128, 128]         --
│    │    └─Sequential: 3-35             [1, 64, 128, 128]         18,624
│    │    └─Sequential: 3-36             [1, 64, 128, 128]         37,056
│    │    └─Sequential: 3-37             [1, 64, 128, 128]         37,056
│    └─ReLU: 2-27                        [1, 64, 128, 128]         --
├─ACPNv2: 1-5                            [1, 64, 128, 128]         --
│    └─MaxPool2d: 2-28                   [1, 64, 128, 128]         --
│    └─AdaptiveAvgPool2d: 2-29           [1, 64, 1, 1]             --
│    └─Sequential: 2-30                  [1, 64, 128, 128]         --
│    │    └─DWConv: 3-38                 [1, 64, 128, 128]         4,800
│    │    └─BatchNorm2d: 3-39            [1, 64, 128, 128]         128
│    │    └─ReLU: 3-40                   [1, 64, 128, 128]         --
│    └─AdaptiveAvgPool2d: 2-31           [1, 64, 1, 1]             --
│    └─Sequential: 2-32                  [1, 64, 128, 128]         --
│    │    └─DWConv: 3-41                 [1, 32, 128, 128]         2,720
│    │    └─BatchNorm2d: 3-42            [1, 32, 128, 128]         64
│    │    └─ReLU: 3-43                   [1, 32, 128, 128]         --
│    │    └─DWConv: 3-44                 [1, 64, 128, 128]         2,432
│    │    └─BatchNorm2d: 3-45            [1, 64, 128, 128]         128
│    │    └─ReLU: 3-46                   [1, 64, 128, 128]         --
│    └─AdaptiveAvgPool2d: 2-33           [1, 64, 1, 1]             --
│    └─Sequential: 2-34                  [1, 64, 128, 128]         --
│    │    └─DWConv: 3-47                 [1, 32, 128, 128]         2,720
│    │    └─BatchNorm2d: 3-48            [1, 32, 128, 128]         64
│    │    └─ReLU: 3-49                   [1, 32, 128, 128]         --
│    │    └─DWConv: 3-50                 [1, 32, 128, 128]         1,376
│    │    └─BatchNorm2d: 3-51            [1, 32, 128, 128]         64
│    │    └─ReLU: 3-52                   [1, 32, 128, 128]         --
│    │    └─DWConv: 3-53                 [1, 64, 128, 128]         2,432
│    │    └─BatchNorm2d: 3-54            [1, 64, 128, 128]         128
│    │    └─ReLU: 3-55                   [1, 64, 128, 128]         --
│    └─AdaptiveAvgPool2d: 2-35           [1, 64, 1, 1]             --
│    └─Sequential: 2-36                  [1, 256, 1, 1]            --
│    │    └─Conv2d: 3-56                 [1, 64, 1, 1]             16,448
│    │    └─ReLU: 3-57                   [1, 64, 1, 1]             --
│    │    └─Conv2d: 3-58                 [1, 256, 1, 1]            16,640
│    └─Sigmoid: 2-37                     [1, 256, 1, 1]            --
│    └─Sequential: 2-38                  [1, 64, 128, 128]         --
│    │    └─Conv2d: 3-59                 [1, 64, 128, 128]         4,160
│    │    └─BatchNorm2d: 3-60            [1, 64, 128, 128]         128
│    │    └─ReLU: 3-61                   [1, 64, 128, 128]         --
├─EMAF: 1-6                              [1, 64, 128, 128]         --
│    └─AdaptiveAvgPool2d: 2-39           [32, 2, 128, 1]           --
│    └─AdaptiveAvgPool2d: 2-40           [32, 2, 1, 128]           --
│    └─Conv2d: 2-41                      [32, 2, 256, 1]           6
│    └─GroupNorm: 2-42                   [32, 2, 128, 128]         4
│    └─AdaptiveAvgPool2d: 2-43           [32, 2, 1, 1]             --
│    └─Softmax: 2-44                     [32, 2, 1, 1]             --
│    └─Conv2d: 2-45                      [32, 2, 128, 128]         38
│    └─AdaptiveAvgPool2d: 2-46           [32, 2, 1, 1]             --
│    └─Sequential: 2-47                  [32, 2, 1, 1]             --
│    │    └─Conv2d: 3-62                 [32, 2, 1, 1]             4
│    │    └─ReLU: 3-63                   [32, 2, 1, 1]             --
│    │    └─Conv2d: 3-64                 [32, 2, 1, 1]             4
│    │    └─Sigmoid: 3-65                [32, 2, 1, 1]             --
├─Dropout2d: 1-7                         [1, 64, 128, 128]         --
├─ResD_Down: 1-8                         [1, 128, 64, 64]          --
│    └─MaxPool2d: 2-48                   [1, 64, 64, 64]           --
│    └─Conv2d: 2-49                      [1, 128, 64, 64]          8,320
│    └─Dalit_Conv: 2-50                  [1, 128, 64, 64]          --
│    │    └─Sequential: 3-66             [1, 128, 64, 64]          74,112
│    │    └─Sequential: 3-67             [1, 128, 64, 64]          147,840
│    │    └─Sequential: 3-68             [1, 128, 64, 64]          147,840
│    └─ReLU: 2-51                        [1, 128, 64, 64]          --
├─ACPNv2: 1-9                            [1, 128, 64, 64]          --
│    └─MaxPool2d: 2-52                   [1, 128, 64, 64]          --
│    └─AdaptiveAvgPool2d: 2-53           [1, 128, 1, 1]            --
│    └─Sequential: 2-54                  [1, 128, 64, 64]          --
│    │    └─DWConv: 3-69                 [1, 128, 64, 64]          17,792
│    │    └─BatchNorm2d: 3-70            [1, 128, 64, 64]          256
│    │    └─ReLU: 3-71                   [1, 128, 64, 64]          --
│    └─AdaptiveAvgPool2d: 2-55           [1, 128, 1, 1]            --
│    └─Sequential: 2-56                  [1, 128, 64, 64]          --
│    │    └─DWConv: 3-72                 [1, 64, 64, 64]           9,536
│    │    └─BatchNorm2d: 3-73            [1, 64, 64, 64]           128
│    │    └─ReLU: 3-74                   [1, 64, 64, 64]           --
│    │    └─DWConv: 3-75                 [1, 128, 64, 64]          8,960
│    │    └─BatchNorm2d: 3-76            [1, 128, 64, 64]          256
│    │    └─ReLU: 3-77                   [1, 128, 64, 64]          --
│    └─AdaptiveAvgPool2d: 2-57           [1, 128, 1, 1]            --
│    └─Sequential: 2-58                  [1, 128, 64, 64]          --
│    │    └─DWConv: 3-78                 [1, 64, 64, 64]           9,536
│    │    └─BatchNorm2d: 3-79            [1, 64, 64, 64]           128
│    │    └─ReLU: 3-80                   [1, 64, 64, 64]           --
│    │    └─DWConv: 3-81                 [1, 64, 64, 64]           4,800
│    │    └─BatchNorm2d: 3-82            [1, 64, 64, 64]           128
│    │    └─ReLU: 3-83                   [1, 64, 64, 64]           --
│    │    └─DWConv: 3-84                 [1, 128, 64, 64]          8,960
│    │    └─BatchNorm2d: 3-85            [1, 128, 64, 64]          256
│    │    └─ReLU: 3-86                   [1, 128, 64, 64]          --
│    └─AdaptiveAvgPool2d: 2-59           [1, 128, 1, 1]            --
│    └─Sequential: 2-60                  [1, 512, 1, 1]            --
│    │    └─Conv2d: 3-87                 [1, 128, 1, 1]            65,664
│    │    └─ReLU: 3-88                   [1, 128, 1, 1]            --
│    │    └─Conv2d: 3-89                 [1, 512, 1, 1]            66,048
│    └─Sigmoid: 2-61                     [1, 512, 1, 1]            --
│    └─Sequential: 2-62                  [1, 128, 64, 64]          --
│    │    └─Conv2d: 3-90                 [1, 128, 64, 64]          16,512
│    │    └─BatchNorm2d: 3-91            [1, 128, 64, 64]          256
│    │    └─ReLU: 3-92                   [1, 128, 64, 64]          --
├─EMAF: 1-10                             [1, 128, 64, 64]          --
│    └─AdaptiveAvgPool2d: 2-63           [32, 4, 64, 1]            --
│    └─AdaptiveAvgPool2d: 2-64           [32, 4, 1, 64]            --
│    └─Conv2d: 2-65                      [32, 4, 128, 1]           20
│    └─GroupNorm: 2-66                   [32, 4, 64, 64]           8
│    └─AdaptiveAvgPool2d: 2-67           [32, 4, 1, 1]             --
│    └─Softmax: 2-68                     [32, 4, 1, 1]             --
│    └─Conv2d: 2-69                      [32, 4, 64, 64]           148
│    └─AdaptiveAvgPool2d: 2-70           [32, 4, 1, 1]             --
│    └─Sequential: 2-71                  [32, 4, 1, 1]             --
│    │    └─Conv2d: 3-93                 [32, 4, 1, 1]             16
│    │    └─ReLU: 3-94                   [32, 4, 1, 1]             --
│    │    └─Conv2d: 3-95                 [32, 4, 1, 1]             16
│    │    └─Sigmoid: 3-96                [32, 4, 1, 1]             --
├─Dropout2d: 1-11                        [1, 128, 64, 64]          --
├─ResD_Down: 1-12                        [1, 256, 32, 32]          --
│    └─MaxPool2d: 2-72                   [1, 128, 32, 32]          --
│    └─Conv2d: 2-73                      [1, 256, 32, 32]          33,024
│    └─Dalit_Conv: 2-74                  [1, 256, 32, 32]          --
│    │    └─Sequential: 3-97             [1, 256, 32, 32]          295,680
│    │    └─Sequential: 3-98             [1, 256, 32, 32]          590,592
│    │    └─Sequential: 3-99             [1, 256, 32, 32]          590,592
│    └─ReLU: 2-75                        [1, 256, 32, 32]          --
├─ACPNv2: 1-13                           [1, 256, 32, 32]          --
│    └─MaxPool2d: 2-76                   [1, 256, 32, 32]          --
│    └─AdaptiveAvgPool2d: 2-77           [1, 256, 1, 1]            --
│    └─Sequential: 2-78                  [1, 256, 32, 32]          --
│    │    └─DWConv: 3-100                [1, 256, 32, 32]          68,352
│    │    └─BatchNorm2d: 3-101           [1, 256, 32, 32]          512
│    │    └─ReLU: 3-102                  [1, 256, 32, 32]          --
│    └─AdaptiveAvgPool2d: 2-79           [1, 256, 1, 1]            --
│    └─Sequential: 2-80                  [1, 256, 32, 32]          --
│    │    └─DWConv: 3-103                [1, 128, 32, 32]          35,456
│    │    └─BatchNorm2d: 3-104           [1, 128, 32, 32]          256
│    │    └─ReLU: 3-105                  [1, 128, 32, 32]          --
│    │    └─DWConv: 3-106                [1, 256, 32, 32]          34,304
│    │    └─BatchNorm2d: 3-107           [1, 256, 32, 32]          512
│    │    └─ReLU: 3-108                  [1, 256, 32, 32]          --
│    └─AdaptiveAvgPool2d: 2-81           [1, 256, 1, 1]            --
│    └─Sequential: 2-82                  [1, 256, 32, 32]          --
│    │    └─DWConv: 3-109                [1, 128, 32, 32]          35,456
│    │    └─BatchNorm2d: 3-110           [1, 128, 32, 32]          256
│    │    └─ReLU: 3-111                  [1, 128, 32, 32]          --
│    │    └─DWConv: 3-112                [1, 128, 32, 32]          17,792
│    │    └─BatchNorm2d: 3-113           [1, 128, 32, 32]          256
│    │    └─ReLU: 3-114                  [1, 128, 32, 32]          --
│    │    └─DWConv: 3-115                [1, 256, 32, 32]          34,304
│    │    └─BatchNorm2d: 3-116           [1, 256, 32, 32]          512
│    │    └─ReLU: 3-117                  [1, 256, 32, 32]          --
│    └─AdaptiveAvgPool2d: 2-83           [1, 256, 1, 1]            --
│    └─Sequential: 2-84                  [1, 1024, 1, 1]           --
│    │    └─Conv2d: 3-118                [1, 256, 1, 1]            262,400
│    │    └─ReLU: 3-119                  [1, 256, 1, 1]            --
│    │    └─Conv2d: 3-120                [1, 1024, 1, 1]           263,168
│    └─Sigmoid: 2-85                     [1, 1024, 1, 1]           --
│    └─Sequential: 2-86                  [1, 256, 32, 32]          --
│    │    └─Conv2d: 3-121                [1, 256, 32, 32]          65,792
│    │    └─BatchNorm2d: 3-122           [1, 256, 32, 32]          512
│    │    └─ReLU: 3-123                  [1, 256, 32, 32]          --
├─EMAF: 1-14                             [1, 256, 32, 32]          --
│    └─AdaptiveAvgPool2d: 2-87           [32, 8, 32, 1]            --
│    └─AdaptiveAvgPool2d: 2-88           [32, 8, 1, 32]            --
│    └─Conv2d: 2-89                      [32, 8, 64, 1]            72
│    └─GroupNorm: 2-90                   [32, 8, 32, 32]           16
│    └─AdaptiveAvgPool2d: 2-91           [32, 8, 1, 1]             --
│    └─Softmax: 2-92                     [32, 8, 1, 1]             --
│    └─Conv2d: 2-93                      [32, 8, 32, 32]           584
│    └─AdaptiveAvgPool2d: 2-94           [32, 8, 1, 1]             --
│    └─Sequential: 2-95                  [32, 8, 1, 1]             --
│    │    └─Conv2d: 3-124                [32, 8, 1, 1]             64
│    │    └─ReLU: 3-125                  [32, 8, 1, 1]             --
│    │    └─Conv2d: 3-126                [32, 8, 1, 1]             64
│    │    └─Sigmoid: 3-127               [32, 8, 1, 1]             --
├─Dropout2d: 1-15                        [1, 256, 32, 32]          --
├─MaxPool2d: 1-16                        [1, 256, 16, 16]          --
├─DoubleConv: 1-17                       [1, 256, 16, 16]          --
│    └─Sequential: 2-96                  [1, 512, 16, 16]          --
│    │    └─Conv2d: 3-128                [1, 512, 16, 16]          1,180,160
│    │    └─BatchNorm2d: 3-129           [1, 512, 16, 16]          1,024
│    └─Sequential: 2-97                  --                        (recursive)
│    │    └─ReLU: 3-130                  [1, 512, 16, 16]          --
│    └─Sequential: 2-98                  [1, 256, 16, 16]          --
│    │    └─Conv2d: 3-131                [1, 256, 16, 16]          1,179,904
│    │    └─BatchNorm2d: 3-132           [1, 256, 16, 16]          512
│    │    └─ReLU: 3-133                  [1, 256, 16, 16]          --
├─Dropout2d: 1-18                        [1, 256, 16, 16]          --
├─ResD_Up: 1-19                          [1, 128, 32, 32]          --
│    └─Upsample: 2-99                    [1, 256, 32, 32]          --
│    └─Conv2d: 2-100                     [1, 128, 32, 32]          65,664
│    └─Dalit_Conv: 2-101                 [1, 128, 32, 32]          --
│    │    └─Sequential: 3-134            [1, 128, 32, 32]          590,208
│    │    └─Sequential: 3-135            [1, 128, 32, 32]          147,840
│    │    └─Sequential: 3-136            [1, 128, 32, 32]          147,840
│    └─ReLU: 2-102                       [1, 128, 32, 32]          --
├─ACPNv2: 1-20                           [1, 128, 32, 32]          --
│    └─MaxPool2d: 2-103                  [1, 128, 32, 32]          --
│    └─AdaptiveAvgPool2d: 2-104          [1, 128, 1, 1]            --
│    └─Sequential: 2-105                 [1, 128, 32, 32]          --
│    │    └─DWConv: 3-137                [1, 128, 32, 32]          17,792
│    │    └─BatchNorm2d: 3-138           [1, 128, 32, 32]          256
│    │    └─ReLU: 3-139                  [1, 128, 32, 32]          --
│    └─AdaptiveAvgPool2d: 2-106          [1, 128, 1, 1]            --
│    └─Sequential: 2-107                 [1, 128, 32, 32]          --
│    │    └─DWConv: 3-140                [1, 64, 32, 32]           9,536
│    │    └─BatchNorm2d: 3-141           [1, 64, 32, 32]           128
│    │    └─ReLU: 3-142                  [1, 64, 32, 32]           --
│    │    └─DWConv: 3-143                [1, 128, 32, 32]          8,960
│    │    └─BatchNorm2d: 3-144           [1, 128, 32, 32]          256
│    │    └─ReLU: 3-145                  [1, 128, 32, 32]          --
│    └─AdaptiveAvgPool2d: 2-108          [1, 128, 1, 1]            --
│    └─Sequential: 2-109                 [1, 128, 32, 32]          --
│    │    └─DWConv: 3-146                [1, 64, 32, 32]           9,536
│    │    └─BatchNorm2d: 3-147           [1, 64, 32, 32]           128
│    │    └─ReLU: 3-148                  [1, 64, 32, 32]           --
│    │    └─DWConv: 3-149                [1, 64, 32, 32]           4,800
│    │    └─BatchNorm2d: 3-150           [1, 64, 32, 32]           128
│    │    └─ReLU: 3-151                  [1, 64, 32, 32]           --
│    │    └─DWConv: 3-152                [1, 128, 32, 32]          8,960
│    │    └─BatchNorm2d: 3-153           [1, 128, 32, 32]          256
│    │    └─ReLU: 3-154                  [1, 128, 32, 32]          --
│    └─AdaptiveAvgPool2d: 2-110          [1, 128, 1, 1]            --
│    └─Sequential: 2-111                 [1, 512, 1, 1]            --
│    │    └─Conv2d: 3-155                [1, 128, 1, 1]            65,664
│    │    └─ReLU: 3-156                  [1, 128, 1, 1]            --
│    │    └─Conv2d: 3-157                [1, 512, 1, 1]            66,048
│    └─Sigmoid: 2-112                    [1, 512, 1, 1]            --
│    └─Sequential: 2-113                 [1, 128, 32, 32]          --
│    │    └─Conv2d: 3-158                [1, 128, 32, 32]          16,512
│    │    └─BatchNorm2d: 3-159           [1, 128, 32, 32]          256
│    │    └─ReLU: 3-160                  [1, 128, 32, 32]          --
├─Dropout2d: 1-21                        [1, 128, 32, 32]          --
├─ResD_Up: 1-22                          [1, 64, 64, 64]           --
│    └─Upsample: 2-114                   [1, 128, 64, 64]          --
│    └─Conv2d: 2-115                     [1, 64, 64, 64]           16,448
│    └─Dalit_Conv: 2-116                 [1, 64, 64, 64]           --
│    │    └─Sequential: 3-161            [1, 64, 64, 64]           147,648
│    │    └─Sequential: 3-162            [1, 64, 64, 64]           37,056
│    │    └─Sequential: 3-163            [1, 64, 64, 64]           37,056
│    └─ReLU: 2-117                       [1, 64, 64, 64]           --
├─ACPNv2: 1-23                           [1, 64, 64, 64]           --
│    └─MaxPool2d: 2-118                  [1, 64, 64, 64]           --
│    └─AdaptiveAvgPool2d: 2-119          [1, 64, 1, 1]             --
│    └─Sequential: 2-120                 [1, 64, 64, 64]           --
│    │    └─DWConv: 3-164                [1, 64, 64, 64]           4,800
│    │    └─BatchNorm2d: 3-165           [1, 64, 64, 64]           128
│    │    └─ReLU: 3-166                  [1, 64, 64, 64]           --
│    └─AdaptiveAvgPool2d: 2-121          [1, 64, 1, 1]             --
│    └─Sequential: 2-122                 [1, 64, 64, 64]           --
│    │    └─DWConv: 3-167                [1, 32, 64, 64]           2,720
│    │    └─BatchNorm2d: 3-168           [1, 32, 64, 64]           64
│    │    └─ReLU: 3-169                  [1, 32, 64, 64]           --
│    │    └─DWConv: 3-170                [1, 64, 64, 64]           2,432
│    │    └─BatchNorm2d: 3-171           [1, 64, 64, 64]           128
│    │    └─ReLU: 3-172                  [1, 64, 64, 64]           --
│    └─AdaptiveAvgPool2d: 2-123          [1, 64, 1, 1]             --
│    └─Sequential: 2-124                 [1, 64, 64, 64]           --
│    │    └─DWConv: 3-173                [1, 32, 64, 64]           2,720
│    │    └─BatchNorm2d: 3-174           [1, 32, 64, 64]           64
│    │    └─ReLU: 3-175                  [1, 32, 64, 64]           --
│    │    └─DWConv: 3-176                [1, 32, 64, 64]           1,376
│    │    └─BatchNorm2d: 3-177           [1, 32, 64, 64]           64
│    │    └─ReLU: 3-178                  [1, 32, 64, 64]           --
│    │    └─DWConv: 3-179                [1, 64, 64, 64]           2,432
│    │    └─BatchNorm2d: 3-180           [1, 64, 64, 64]           128
│    │    └─ReLU: 3-181                  [1, 64, 64, 64]           --
│    └─AdaptiveAvgPool2d: 2-125          [1, 64, 1, 1]             --
│    └─Sequential: 2-126                 [1, 256, 1, 1]            --
│    │    └─Conv2d: 3-182                [1, 64, 1, 1]             16,448
│    │    └─ReLU: 3-183                  [1, 64, 1, 1]             --
│    │    └─Conv2d: 3-184                [1, 256, 1, 1]            16,640
│    └─Sigmoid: 2-127                    [1, 256, 1, 1]            --
│    └─Sequential: 2-128                 [1, 64, 64, 64]           --
│    │    └─Conv2d: 3-185                [1, 64, 64, 64]           4,160
│    │    └─BatchNorm2d: 3-186           [1, 64, 64, 64]           128
│    │    └─ReLU: 3-187                  [1, 64, 64, 64]           --
├─Dropout2d: 1-24                        [1, 64, 64, 64]           --
├─ResD_Up: 1-25                          [1, 32, 128, 128]         --
│    └─Upsample: 2-129                   [1, 64, 128, 128]         --
│    └─Conv2d: 2-130                     [1, 32, 128, 128]         4,128
│    └─Dalit_Conv: 2-131                 [1, 32, 128, 128]         --
│    │    └─Sequential: 3-188            [1, 32, 128, 128]         36,960
│    │    └─Sequential: 3-189            [1, 32, 128, 128]         9,312
│    │    └─Sequential: 3-190            [1, 32, 128, 128]         9,312
│    └─ReLU: 2-132                       [1, 32, 128, 128]         --
├─ACPNv2: 1-26                           [1, 32, 128, 128]         --
│    └─MaxPool2d: 2-133                  [1, 32, 128, 128]         --
│    └─AdaptiveAvgPool2d: 2-134          [1, 32, 1, 1]             --
│    └─Sequential: 2-135                 [1, 32, 128, 128]         --
│    │    └─DWConv: 3-191                [1, 32, 128, 128]         1,376
│    │    └─BatchNorm2d: 3-192           [1, 32, 128, 128]         64
│    │    └─ReLU: 3-193                  [1, 32, 128, 128]         --
│    └─AdaptiveAvgPool2d: 2-136          [1, 32, 1, 1]             --
│    └─Sequential: 2-137                 [1, 32, 128, 128]         --
│    │    └─DWConv: 3-194                [1, 16, 128, 128]         848
│    │    └─BatchNorm2d: 3-195           [1, 16, 128, 128]         32
│    │    └─ReLU: 3-196                  [1, 16, 128, 128]         --
│    │    └─DWConv: 3-197                [1, 32, 128, 128]         704
│    │    └─BatchNorm2d: 3-198           [1, 32, 128, 128]         64
│    │    └─ReLU: 3-199                  [1, 32, 128, 128]         --
│    └─AdaptiveAvgPool2d: 2-138          [1, 32, 1, 1]             --
│    └─Sequential: 2-139                 [1, 32, 128, 128]         --
│    │    └─DWConv: 3-200                [1, 16, 128, 128]         848
│    │    └─BatchNorm2d: 3-201           [1, 16, 128, 128]         32
│    │    └─ReLU: 3-202                  [1, 16, 128, 128]         --
│    │    └─DWConv: 3-203                [1, 16, 128, 128]         432
│    │    └─BatchNorm2d: 3-204           [1, 16, 128, 128]         32
│    │    └─ReLU: 3-205                  [1, 16, 128, 128]         --
│    │    └─DWConv: 3-206                [1, 32, 128, 128]         704
│    │    └─BatchNorm2d: 3-207           [1, 32, 128, 128]         64
│    │    └─ReLU: 3-208                  [1, 32, 128, 128]         --
│    └─AdaptiveAvgPool2d: 2-140          [1, 32, 1, 1]             --
│    └─Sequential: 2-141                 [1, 128, 1, 1]            --
│    │    └─Conv2d: 3-209                [1, 32, 1, 1]             4,128
│    │    └─ReLU: 3-210                  [1, 32, 1, 1]             --
│    │    └─Conv2d: 3-211                [1, 128, 1, 1]            4,224
│    └─Sigmoid: 2-142                    [1, 128, 1, 1]            --
│    └─Sequential: 2-143                 [1, 32, 128, 128]         --
│    │    └─Conv2d: 3-212                [1, 32, 128, 128]         1,056
│    │    └─BatchNorm2d: 3-213           [1, 32, 128, 128]         64
│    │    └─ReLU: 3-214                  [1, 32, 128, 128]         --
├─Dropout2d: 1-27                        [1, 32, 128, 128]         --
├─Up: 1-28                               [1, 32, 256, 256]         --
│    └─Upsample: 2-144                   [1, 32, 256, 256]         --
│    └─DoubleConv: 2-145                 [1, 32, 256, 256]         --
│    │    └─Sequential: 3-215            [1, 16, 256, 256]         9,264
│    │    └─Sequential: 3-216            --                        (recursive)
│    │    └─Sequential: 3-217            [1, 32, 256, 256]         4,704
├─ACPNv2: 1-29                           [1, 32, 256, 256]         --
│    └─MaxPool2d: 2-146                  [1, 32, 256, 256]         --
│    └─AdaptiveAvgPool2d: 2-147          [1, 32, 1, 1]             --
│    └─Sequential: 2-148                 [1, 32, 256, 256]         --
│    │    └─DWConv: 3-218                [1, 32, 256, 256]         1,376
│    │    └─BatchNorm2d: 3-219           [1, 32, 256, 256]         64
│    │    └─ReLU: 3-220                  [1, 32, 256, 256]         --
│    └─AdaptiveAvgPool2d: 2-149          [1, 32, 1, 1]             --
│    └─Sequential: 2-150                 [1, 32, 256, 256]         --
│    │    └─DWConv: 3-221                [1, 16, 256, 256]         848
│    │    └─BatchNorm2d: 3-222           [1, 16, 256, 256]         32
│    │    └─ReLU: 3-223                  [1, 16, 256, 256]         --
│    │    └─DWConv: 3-224                [1, 32, 256, 256]         704
│    │    └─BatchNorm2d: 3-225           [1, 32, 256, 256]         64
│    │    └─ReLU: 3-226                  [1, 32, 256, 256]         --
│    └─AdaptiveAvgPool2d: 2-151          [1, 32, 1, 1]             --
│    └─Sequential: 2-152                 [1, 32, 256, 256]         --
│    │    └─DWConv: 3-227                [1, 16, 256, 256]         848
│    │    └─BatchNorm2d: 3-228           [1, 16, 256, 256]         32
│    │    └─ReLU: 3-229                  [1, 16, 256, 256]         --
│    │    └─DWConv: 3-230                [1, 16, 256, 256]         432
│    │    └─BatchNorm2d: 3-231           [1, 16, 256, 256]         32
│    │    └─ReLU: 3-232                  [1, 16, 256, 256]         --
│    │    └─DWConv: 3-233                [1, 32, 256, 256]         704
│    │    └─BatchNorm2d: 3-234           [1, 32, 256, 256]         64
│    │    └─ReLU: 3-235                  [1, 32, 256, 256]         --
│    └─AdaptiveAvgPool2d: 2-153          [1, 32, 1, 1]             --
│    └─Sequential: 2-154                 [1, 128, 1, 1]            --
│    │    └─Conv2d: 3-236                [1, 32, 1, 1]             4,128
│    │    └─ReLU: 3-237                  [1, 32, 1, 1]             --
│    │    └─Conv2d: 3-238                [1, 128, 1, 1]            4,224
│    └─Sigmoid: 2-155                    [1, 128, 1, 1]            --
│    └─Sequential: 2-156                 [1, 32, 256, 256]         --
│    │    └─Conv2d: 3-239                [1, 32, 256, 256]         1,056
│    │    └─BatchNorm2d: 3-240           [1, 32, 256, 256]         64
│    │    └─ReLU: 3-241                  [1, 32, 256, 256]         --
├─Dropout2d: 1-30                        [1, 32, 256, 256]         --
├─OutConv: 1-31                          [1, 4, 256, 256]          --
│    └─Conv2d: 2-157                     [1, 4, 256, 256]          132
==========================================================================================
Total params: 7,010,524
Trainable params: 7,010,524
Non-trainable params: 0
Total mult-adds (Units.GIGABYTES): 11.82
==========================================================================================
Input size (MB): 0.79
Forward/backward pass size (MB): 1201.71
Params size (MB): 28.04
Estimated Total Size (MB): 1230.53
…
